save/checkpoint.pth.tar (torch_old, 512101 bytes, 36 tensors)

conv1.weight f4 [16, 1, 3, 3]
0	0x3e4e1e86	0.20128831
1	0x3e41c53b	0.18922894
2	0x3ed6515b	0.41858944
3	0x3ed3c943	0.41364488
4	0xbccf0246	-0.025269639
5	0xbef363cd	-0.4753708
6	0x3e8b0128	0.2714932
7	0xbee045c1	-0.43803218
8	0xbe45787d	-0.19284244
9	0xbe8c9f61	-0.27465346
10	0xbf0364f3	-0.5132591
11	0xbd38bef0	-0.045103967
12	0xbebd202a	-0.36938602
13	0x3ea49034	0.32141268
14	0x3e8d10c2	0.27551848
15	0x3eb9eb45	0.3631231
16	0x3f0627a3	0.5240423
17	0xbeb81002	-0.35949713
18	0x3ed797af	0.42107913
19	0xbe0bd87b	-0.136568
20	0xbee9c719	-0.45659712
21	0x3f1e7f4e	0.61913
22	0xbea6018d	-0.32423058
23	0xbef7da76	-0.4840886
24	0x3e98e238	0.2986009
25	0xbec10d35	-0.3770539
26	0xbeaad7b1	-0.33367684
27	0xbda88965	-0.08229331
28	0xbec834c8	-0.3910277
29	0xbea36eb4	-0.31920397
30	0x3ea3fcd3	0.32028827
31	0x3e397ecc	0.18114775
32	0x3e721de5	0.23644216
33	0x3e0a3c99	0.13499679
34	0x3e3ffa48	0.18747818
35	0x3e25ec00	0.16203308
36	0xbd2f0f1b	-0.042739015
37	0xbd515a0b	-0.051111262
38	0x3de08b3e	0.10964058
39	0x3edbeccb	0.42954096
40	0x3ed8648a	0.42264205
41	0x3f08d545	0.53450423
42	0xbebb9277	-0.3663518
43	0xbf18f16b	-0.59743375
44	0xbe9bcc04	-0.3042909
45	0xbe08a3de	-0.1334376
46	0xbe0a3b99	-0.13499297
47	0xbd96f358	-0.07370633
48	0xbc94861e	-0.018130358
49	0xbe6fa260	-0.23401785
50	0xbbb68549	-0.005570088
51	0xbe853d1a	-0.2602318
52	0xbe0e4e30	-0.13897014
53	0x3e0a24c9	0.13490595
54	0xbecbd2c2	-0.39809233
55	0xbf263a63	-0.6493284
56	0x3f22a575	0.6353372
57	0xbd2a5693	-0.04158647
58	0xbd8d99a5	-0.06914071
59	0x3f279f0e	0.65477073
60	0xbe5275ac	-0.20552701
61	0xbead7305	-0.33876815
62	0xbe9e267e	-0.30888742
63	0x3d79b7cc	0.060966298
64	0x3eacf679	0.33781794
65	0x3e99a75f	0.30010507
66	0xbd4c54ea	-0.049885668
67	0x3e1f3e91	0.15551211
68	0xbe9d1b3c	-0.3068484
69	0xbf2a9e7a	-0.66648066
70	0xbf0e2330	-0.5552244
71	0xbed752c5	-0.42055336
72	0xbf06bea8	-0.5263467
73	0xbf0784dc	-0.529371
74	0xbd9d118a	-0.07669361
75	0x3e8d11d3	0.2755266
76	0xbec7a876	-0.38995713
77	0xbf1ae2d8	-0.60502386
78	0x3ef97790	0.4872403
79	0x3e4d0060	0.20019674
80	0xbe678582	-0.22609523
81	0x3e9ba993	0.30402812
82	0xbee1f1e4	-0.4412986
83	0xbf40b211	-0.7527171
84	0x3ed9049e	0.42386335
85	0x3e268eee	0.16265461
86	0xbec5cbe9	-0.38632134
87	0x3e90088a	0.28131515
88	0x3ebc0006	0.36718768
89	0x3e0a78d0	0.13522649
90	0xbdb16dbd	-0.08663509
91	0x3e94dc0f	0.2907414
92	0x3e207c97	0.15672527
93	0x3df3adda	0.11898394
94	0x3e192e4e	0.1495907
95	0x3d90197a	0.07036109
96	0x3d240d24	0.040051594
97	0xbca0cb1c	-0.0196281
98	0xbdee6c83	-0.11641791
99	0x3d8552af	0.06509911
100	0x3dba1a9f	0.09087109
101	0xbd1491c1	-0.036271814
102	0x3d32b703	0.043631565
103	0xbd0a5a79	-0.033777688
104	0x3ddcdc72	0.10784234
105	0x3e431f34	0.19054872
106	0xbc5e2486	-0.013558513
107	0x3e02d19f	0.12775277
108	0x3e318ba3	0.17338423
109	0x3f03e2bb	0.5151784
110	0x3e9831e9	0.29725578
111	0xbf2ac27c	-0.6670301
112	0x3dcbe0d0	0.09954989
113	0x3e507d65	0.20360334
114	0xbf10bff1	-0.5654288
115	0xbe2e9394	-0.17048484
116	0x3e74d905	0.23910911
117	0x3ea2773a	0.31731588
118	0x3e8ba247	0.27272245
119	0xbea45d94	-0.32102644
120	0x3e617ef8	0.22021091
121	0xbe2d4515	-0.16920884
122	0xbf044f8e	-0.5168389
123	0xbeee17e6	-0.46502608
124	0xbee26f08	-0.44225335
125	0xbd981c5c	-0.07427284
126	0xbeddac06	-0.43295306
127	0xbdba6947	-0.09102111
128	0x3e94159e	0.28922743
129	0xbd578143	-0.052613508
130	0x3e5b694d	0.21426888
131	0x3e1f38f1	0.15549065
132	0x3e4177e9	0.18893398
133	0x3dbe71ac	0.09299025
134	0x3dc88ad9	0.09792108
135	0xbeaa4223	-0.33253583
136	0xbeec8c76	-0.46200913
137	0x3d9937b6	0.07481329
138	0xbeac7ccc	-0.33688962
139	0x3df5dcae	0.12004982
140	0x3e9b5edc	0.3034581
141	0x3d0c234e	0.034213357
142	0x3e888bec	0.26669252
143	0x3e941c11	0.28927663

bn1.weight f4 [16]
0	0x3ef572f6	0.4793927
1	0x3f11602f	0.5678739
2	0x3f5e0d0f	0.86738676
3	0x3ec537a4	0.38519013
4	0x3ef6a877	0.48175403
5	0x3f0cfcf2	0.55073464
6	0x3f7ca4b2	0.98688805
7	0x3f4cf0a3	0.8005468
8	0x3f8a51e3	1.080624
9	0x3f10ee0e	0.5661324
10	0x3e4038ac	0.18771619
11	0x3e11078e	0.14163038
12	0x3f0bfd7e	0.54683673
13	0x3f6585e9	0.89657456
14	0x3eab3ade	0.3344335
15	0x3eec980e	0.4620976

bn1.bias f4 [16]
0	0xbe44b960	-0.1921134
1	0xbde8edee	-0.113735065
2	0xbdce9f84	-0.10089019
3	0xbe8d4d18	-0.2759788
4	0xbd1f219d	-0.038850415
5	0x3c2ecb88	0.010668643
6	0xbea000da	-0.3125065
7	0x3cbd0437	0.023073299
8	0x3cb33cf5	0.021879653
9	0xbd961f90	-0.07330239
10	0xbe8df4fc	-0.2772597
11	0xbdf557d2	-0.11979641
12	0xbe0955f0	-0.13411689
13	0x3d872ba4	0.06600121
14	0xbeb40c48	-0.3516562
15	0xbd691793	-0.056907248

bn1.running_mean f4 [16]
0	0x3c85b635	0.016322235
1	0xbc2e5063	-0.010639283
2	0xbc0bb206	-0.008526331
3	0x3b31f362	0.0027153124
4	0xbc562826	-0.013071096
5	0xbc783422	-0.015149148
6	0xbc6e0dcc	-0.014529657
7	0xbd00a44d	-0.03140669
8	0xbcae6477	-0.02128814
9	0xbaadbcf1	-0.0013255161
10	0x3bef0fc0	0.0072955787
11	0x3c69d705	0.014272456
12	0x3b23c7cc	0.0024990914
13	0xbcc72cac	-0.024313293
14	0x3bce08c9	0.0062876684
15	0xbac118cd	-0.0014732123

bn1.running_var f4 [16]
0	0x3f407ee8	0.75193644
1	0x3f0e3c45	0.55560714
2	0x3fedd816	1.8581569
3	0x3eef613a	0.46753865
4	0x3f00bf48	0.5029187
5	0x3f180fbf	0.59399027
6	0x3f8109f9	1.0081168
7	0x3fe13cd5	1.759669
8	0x3ffeb2ef	1.9898356
9	0x3f8d47b3	1.1037506
10	0x3eb40336	0.351587
11	0x3e3e5771	0.18588044
12	0x3f66a488	0.90094805
13	0x3fd61a27	1.6726731
14	0x3eea5ee0	0.4577551
15	0x3f470ad0	0.77750874

conv2.weight f4 [32, 16, 3, 3]
0	0x3e441e1c	0.19152111
1	0x3ce1414a	0.027496953
2	0xbd3c8385	-0.046023864
3	0x3dc9d65c	0.09855339
4	0x3d53a95d	0.05167519
5	0xbd49de64	-0.049284354
6	0xbd11f990	-0.035638392
7	0x3dd7b359	0.10532255
8	0x3d9192f2	0.07108106
9	0xbd799fc8	-0.060943395
10	0xbd97b3c3	-0.07407334
11	0x3c5e529f	0.013569503
12	0xbe0d9224	-0.1382528
13	0xbd91db7a	-0.0712194
14	0xbdcaed20	-0.09908509
15	0x3e218b08	0.15775692
16	0x3c2abf94	0.010421652
17	0xbd0d7f20	-0.034545064
18	0x3dc5122e	0.09622608
19	0xbe71c46b	-0.23610084
20	0xbe8aa391	-0.27077916
21	0x3e6eee61	0.23333122
22	0x3dfde9ad	0.12398086
23	0xbdd6579e	-0.104659304
24	0x3e823682	0.2543221
25	0x3eaf17a9	0.3419774
26	0x3d9f1c58	0.07769078
27	0x3d6480b9	0.055786822
28	0x3ce3234f	0.027726797
29	0x3dc7b5e9	0.097514935
30	0xbdc4e2da	-0.09613581
31	0xbb364e69	-0.0027817732
32	0xbbbb409a	-0.005714488
33	0xbe43889b	-0.1909508
34	0xbd638479	-0.055546258
35	0xbdac3e1c	-0.08410284
36	0x3d9ac770	0.07557571
37	0x3dabfdeb	0.083980404
38	0x3e808e46	0.25108546
39	0xbdfefc12	-0.12450422
40	0xbdd57f22	-0.10424639
41	0x3cbdc48a	0.023165006
42	0xbe1bd75f	-0.15218876
43	0xbdfb3331	-0.12265623
44	0x3d7f9081	0.06239367
45	0xbe1075ce	-0.14107439
46	0xbdd7e9f0	-0.10542667
47	0xbdf8bdb9	-0.12145562
48	0xbd4baae4	-0.04972352
49	0xbd4c7f6a	-0.0499262
50	0xbcd2035c	-0.025636367
51	0xbcf271a4	-0.029595204
52	0x3be19911	0.006884702
53	0x3cf4a364	0.029863067
54	0xbd74feb2	-0.05981321
55	0xbdd8089a	-0.105485156
56	0x3d5fd926	0.05465045
57	0xbe5149f1	-0.20438363
58	0xbdbf6156	-0.09344737
59	0x3ce5852a	0.0280176
60	0x3d5f6f38	0.054549426
61	0x3da1556b	0.0787762
62	0x3d9ee08f	0.07757675
63	0xbd25fb1a	-0.040522672
64	0x3cb53ded	0.022124255
65	0x3dff1a64	0.124562055
66	0xbe427b21	-0.18992282
67	0xbe1be43c	-0.15223783
68	0xbc093d00	-0.00837636
69	0xbe155ce8	-0.14586222
70	0xbe25fd5d	-0.16209932
71	0x3b3038a0	0.002688922
72	0xbdec9b8e	-0.11553107
73	0xbd1fdcad	-0.039028812
74	0xbde60ba7	-0.11232691
75	0xbe0b0f86	-0.1358014
76	0x3c3eee95	0.011653562
77	0xbcb6fb8f	-0.02233675
78	0xbe316946	-0.17325315
79	0xbd8b082c	-0.06788668
80	0xbde2c9e3	-0.11073663
81	0xbdee1d27	-0.11626654
82	0xbe1a1bcf	-0.1504967
83	0xbe029a69	-0.12754215
84	0xbd067b5c	-0.03283249
85	0xbd8287f9	-0.06373591
86	0xbbaefed4	-0.0053404365
87	0xbdc25359	-0.094885536
88	0x3d0af372	0.033923574
89	0x3c93f404	0.018060692
90	0x3d6108af	0.054939922
91	0x3d745cb6	0.05965873
92	0x3d6582c1	0.0560329
93	0xbc3d32d7	-0.011547766
94	0x3c14402d	0.009048504
95	0xbc821eb2	-0.015883777
96	0xbd19de9a	-0.037565805
97	0xbd34d5f3	-0.04414935
98	0xbcb68839	-0.022281753
99	0xbc521879	-0.012823218
100	0xbc095be7	-0.008383728
101	0x3d60c64a	0.054876603
102	0x3b6d221b	0.0036183659
103	0x3c9f24ba	0.019426692
104	0x3bd0b030	0.0063686594
105	0xbd778c23	-0.06043638
106	0xbcd5c86b	-0.026096543
107	0xbd38b93b	-0.045098525
108	0xbdeceb46	-0.11568312
109	0x3d62dc0a	0.055385627
110	0x3e139c8e	0.1441519
111	0xbcb8e92e	-0.022572126
112	0xbdc40125	-0.09570531
113	0x3dd337d2	0.10313381
114	0x3d578c88	0.052624255
115	0xbd8a69a0	-0.067584276
116	0xbcd34d81	-0.025793793
117	0x3cfde6b2	0.030993793
118	0xbddad62d	-0.10685382
119	0xbe4e41f2	-0.20142344
120	0x3bd703f9	0.006561753
121	0xbe1cce6d	-0.1531312
122	0xbe230487	-0.15919696
123	0x3e1b723f	0.151803
124	0x3c78e700	0.015191793
125	0xbd54ccdc	-0.05195318
126	0x3cab4932	0.020908926
127	0xbc6144c2	-0.013749303
128	0xbd2303f6	-0.0397987
129	0xbd49779d	-0.049186338
130	0xbca5bf3b	-0.020232787
131	0xbd809f00	-0.06280327
132	0x3d0ec4a4	0.0348555
133	0xbcd0ed84	-0.025503881
134	0xbdf7daa6	-0.12102251
135	0xbd734fa1	-0.059402112
136	0xbe09b597	-0.13448177
137	0xbe02c5d7	-0.12770782
138	0xbd716c65	-0.058941264
139	0xbc879d38	-0.01655446
140	0xbe1f5c54	-0.15562564
141	0x3e0b1820	0.13583422
142	0x3d85e7de	0.06538366
143	0xbddba3e5	-0.1072462
144	0xbe3432e1	-0.17597534
145	0xbdea510c	-0.1144124
146	0xbe2f372a	-0.17110887
147	0x3db99b1c	0.09062788
148	0x3d995315	0.0748655
149	0x3b62b829	0.0034594631
150	0x3e3e6c46	0.1859599
151	0x3da06d1a	0.078333095
152	0xbd998dd5	-0.074977554
153	0x3e203065	0.15643461
154	0x3dd54072	0.104126826
155	0x3da63aba	0.0811667
156	0x3d018d1b	0.03162871
157	0xbd582462	-0.052769072
158	0x3c81d2db	0.015847614
159	0xbd0832ca	-0.03325156
160	0x3d88ac96	0.06673543
161	0x3deb5653	0.114910744
162	0xbdbf8b62	-0.09352757
163	0xbda4640a	-0.080268934
164	0xbda56569	-0.08075983
165	0xbe49c5de	-0.19704387
166	0xbdd4def5	-0.10394088
167	0xbdfb7b56	-0.12279384
168	0x3d0c3091	0.034226004
169	0x3c12cd82	0.00896013
170	0xbded87e1	-0.115981825
171	0x3e0a751a	0.13521233
172	0x3d88c980	0.06679058
173	0x3da44c76	0.08022396
174	0x3d86e028	0.06585723
175	0xbc1459bc	-0.0090545975
176	0xbcedf12a	-0.02904566
177	0x3c8fdcee	0.017561402
178	0x3d1eba05	0.03875162
179	0x3ca08cca	0.019598383
180	0xbd0eef02	-0.034895904
181	0xbcb32d93	-0.021872317
182	0xbce52d3d	-0.027975673
183	0x3e2059f3	0.15659313
184	0x3dba8fcc	0.09109458
185	0xbd350db9	-0.04420254
186	0x3d61fe22	0.055174
187	0xbd338683	-0.043829452
188	0xbe09b492	-0.13447788
189	0xbc906229	-0.017624931
190	0xbd4d7a57	-0.0501655
191	0x3c947027	0.018119885
192	0xbd9f7a92	-0.0778705
193	0xbd3e86b3	-0.046515178
194	0x3d0493d7	0.032367554
195	0xbdd37a50	-0.10326064
196	0xbd93cb4a	-0.07216509
197	0xbbb30637	-0.0054633874
198	0xbd0626d7	-0.032751884
199	0xbc29f93c	-0.0103743635
200	0x3e1ca144	0.15295893
201	0xbdc2b812	-0.09507765
202	0xbe3e6a3e	-0.18595216
203	0x3cd4f3e8	0.02599521
204	0xbe0f5ecb	-0.14001004
205	0xbe3eee0f	-0.186455
206	0x3dbb4d84	0.09145644
207	0xbdca3433	-0.098732375
208	0xbd21e1f9	-0.039522145
209	0xbc410655	-0.011781295
210	0x3c85a8a9	0.016315775
211	0x3d698c57	0.057018604
212	0x3c640b75	0.013918747
213	0xbd364e20	-0.0445081
214	0x3c37ceaf	0.011218711
215	0xbd2fc01b	-0.042907815
216	0x3e0533c7	0.13008033
217	0xbad22cc2	-0.0016035067
218	0xbdb1c4b5	-0.08680097
219	0x3e130437	0.14357077
220	0x3c38b6b5	0.0112740295
221	0xbdaa0b91	-0.08302987
222	0xbc5d8caf	-0.013522311
223	0xbdc5578d	-0.096358396
224	0xbdeef6c5	-0.11668161
225	0x3e9f9b41	0.31173137
226	0x3d501f7b	0.050811272
227	0x3d7cb65e	0.061697356
228	0x3d912e51	0.07088912
229	0xbdc6c7ca	-0.097060755
230	0xbce45d2d	-0.02787646
231	0xbd9ab98e	-0.07554923
232	0xbdb419c9	-0.08793981
233	0xbe31fba9	-0.17381157
234	0xbba5b12d	-0.0050565214
235	0xbc646c81	-0.013941885
236	0x3d0025cc	0.031286046
237	0x3d2ec36f	0.04266685
238	0xbcd3d5b7	-0.025858743
239	0x3d0ffd44	0.035153642
240	0x3cdd796e	0.027035441
241	0xbce07b17	-0.027402444
242	0xbd89ffc3	-0.06738236
243	0xbcdd6a25	-0.027028153
244	0xbc431116	-0.011905929
245	0x3c77f3d1	0.015133814
246	0x3d4e2949	0.05033234
247	0x3beea301	0.007282615
248	0xbd2b679d	-0.04184686
249	0x3cc40147	0.02392639
250	0xbc36f418	-0.011166595
251	0x3cd5c52a	0.026094992
252	0xbe282a63	-0.16422419
253	0xbdfceb3a	-0.123495534
254	0xbd2daf12	-0.04240329
255	0xbe1d836b	-0.15382163

bn2.weight f4 [32]
0	0x3f0215b6	0.5081438
1	0x3edc4f12	0.43029076
2	0x3ee1f4d7	0.4413211
3	0x3ef8edf8	0.48619056
4	0x3f3316e2	0.6995679
5	0x3ecfc494	0.40579665
6	0x3f065430	0.5247221
7	0x3ef94933	0.4868866
8	0x3f1d93b0	0.6155348
9	0x3efaef2a	0.49010593
10	0x3f12e75d	0.5738428
11	0x3ed5affc	0.41735828
12	0x3f18a457	0.5962576
13	0x3ee7eaa0	0.45296192
14	0x3ec9fb0c	0.39449346
15	0x3f01e9c4	0.50747323
16	0x3f2c96e1	0.6741772
17	0x3ed2d721	0.41179755
18	0x3f146a54	0.57974744
19	0x3f3c66f6	0.73594606
20	0x3f1644b1	0.58698565
21	0x3eae40fd	0.34033957
22	0x3f335d60	0.70064354
23	0x3ecf2e87	0.40465185
24	0x3f233a3b	0.6376073
25	0x3ecc540f	0.39907882
26	0x3f026df3	0.5094902
27	0x3f28eff6	0.6599115
28	0x3f260e5f	0.6486568
29	0x3f182079	0.5942455
30	0x3f0af498	0.5427947
31	0x3f07c922	0.5304128

bn2.bias f4 [32]
0	0xbea51f10	-0.3225026
1	0xbe8a4f22	-0.270135
2	0xbd0c37e7	-0.034233
3	0x3cd4b1c9	0.02596368
4	0xbd32dc09	-0.043666873
5	0xbc7af61f	-0.015317469
6	0xbec4d5a0	-0.38444233
7	0xbdf205b6	-0.118174955
8	0xbe9422e2	-0.28932863
9	0xbe01d96a	-0.12680593
10	0xbea01563	-0.31266317
11	0xbdefb202	-0.11703874
12	0xbe4509c7	-0.19242011
13	0xbe4b2ed4	-0.19842082
14	0xbeb74293	-0.3579298
15	0xbd842991	-0.06453241
16	0xbf08f186	-0.53493536
17	0xbd4f45a6	-0.05060353
18	0xbe6be98c	-0.2303831
19	0xbe406d48	-0.18791687
20	0xbec74bef	-0.3892512
21	0xbe25e9d9	-0.16202487
22	0xbed47a46	-0.41499537
23	0xbe1a55f2	-0.15071848
24	0xbdd2bb8b	-0.10289677
25	0xbe9f7b9a	-0.31148988
26	0xbd8683a9	-0.06568081
27	0xbea30f8c	-0.318478
28	0xbe2397fa	-0.15975943
29	0xbd242778	-0.040076703
30	0xbf005658	-0.5013175
31	0xbdbdb902	-0.09263803

bn2.running_mean f4 [32]
0	0xbf3c3632	-0.73520195
1	0xbea6442e	-0.32473892
2	0xbf05a95e	-0.5221156
3	0xbcdb7a32	-0.026791666
4	0xbf33b378	-0.7019572
5	0xbd8d7850	-0.069077134
6	0xbeffbf84	-0.49950802
7	0x3d9ed401	0.0775528
8	0xbf14fffa	-0.5820309
9	0xbf4a61b7	-0.7905535
10	0x3da323b6	0.07965796
11	0x3e736453	0.2376874
12	0xbf04904f	-0.517827
13	0xbe0e076e	-0.13870022
14	0xbf0eaf10	-0.55735874
15	0x3df58a60	0.119892836
16	0xbf902106	-1.1260078
17	0xbe9c072d	-0.30474225
18	0xbeff46f8	-0.49858832
19	0xbf567806	-0.8377689
20	0xbf28ff1a	-0.66014254
21	0xbeb60c94	-0.3555647
22	0xbf31e923	-0.69496363
23	0xbd802e92	-0.062588826
24	0xbcdff3e2	-0.027337972
25	0xbe5106c0	-0.20412731
26	0x3dffd0ed	0.12491021
27	0x3d499724	0.049216405
28	0x3e9a1391	0.30093053
29	0xbdc10053	-0.0942389
30	0xbef3c32f	-0.4760985
31	0xbe9033e2	-0.28164583

bn2.running_var f4 [32]
0	0x3e66d486	0.22542009
1	0x3e9ad338	0.30239272
2	0x3de72ded	0.112880565
3	0x3f37ec85	0.71845275
4	0x3ec93829	0.3930066
5	0x3e69dc70	0.22837996
6	0x3ec44616	0.3833472
7	0x3e887e14	0.2665869
8	0x3e686837	0.22696005
9	0x3e9417c6	0.28924388
10	0x3e94181c	0.28924644
11	0x3dece795	0.11567608
12	0x3e704dde	0.23467204
13	0x3eb3145d	0.34976473
14	0x3e475615	0.19466431
15	0x3e2c6042	0.16833594
16	0x3e9aa18f	0.30201384
17	0x3e22046e	0.15822002
18	0x3ec68f57	0.38781235
19	0x3e9dc6be	0.3081569
20	0x3ea85967	0.3288071
21	0x3e3dd7c7	0.18539344
22	0x3ef63fec	0.48095644
23	0x3e605650	0.21907926
24	0x3edb356a	0.4281419
25	0x3e45b224	0.19306237
26	0x3ecd7112	0.40125328
27	0x3ec219ad	0.37910214
28	0x3e6d4c46	0.23173627
29	0x3ece7e9c	0.4033097
30	0x3e8d7929	0.276315
31	0x3e8a0d38	0.2696321

conv3.weight f4 [64, 32, 3, 3]
0	0x3e21090e	0.1572611
1	0x3e69a94f	0.22818492
2	0x3e3a485e	0.18191668
3	0xbc94232b	-0.018083176
4	0xbcbc3401	-0.022974016
5	0xbca8998b	-0.020581027
6	0xbe2004f0	-0.15626884
7	0xbe42fb4d	-0.19041176
8	0xbe4ba69e	-0.19887778
9	0xbcdf204e	-0.027237084
10	0xbd5426e9	-0.05179492
11	0x3df57b49	0.119864054
12	0x3ca8d059	0.02060716
13	0xbd5ce820	-0.05393231
14	0x3b6271ce	0.0034552696
15	0xbd8ba214	-0.06818023
16	0xbd991b44	-0.07475904
17	0xbde2acb1	-0.110680945
18	0x3dd3c863	0.10340955
19	0x3d775237	0.06038114
20	0x3d418ca9	0.047253285
21	0x3bff8ada	0.007798535
22	0xbd6508ea	-0.055916704
23	0xbcec0764	-0.028812118
24	0xbbdad41d	-0.006678118
25	0x3c101ae6	0.008795476
26	0x3d7ab8c9	0.06121138
27	0xbe2571ac	-0.16156644
28	0x3d74fc9f	0.05981123
29	0x3dcc161b	0.09965154
30	0xbd031395	-0.032001097
31	0xbcb50139	-0.02209531
32	0xbd12325b	-0.035692554
33	0x3d61c862	0.05512274
34	0xba5a5537	-0.0008328738
35	0x3d1e0245	0.038576383
36	0xbd48928f	-0.048967894
37	0x3e58b6ba	0.21163455
38	0x3e5ef965	0.21774824
39	0xbe290c49	-0.16508593
40	0x3cd5de8c	0.026107095
41	0x3e09c795	0.13455041
42	0xbdc560ac	-0.09637579
43	0xbdb21d10	-0.086969495
44	0xbda67ade	-0.08128904
45	0x3cf5ad35	0.029989818
46	0x3dabbc18	0.083854854
47	0x3ba6afa0	0.005086854
48	0x3c369f0e	0.01114632
49	0xbbd066e0	-0.00635992
50	0x3c24b776	0.010053506
51	0x3de52a2e	0.11189686
52	0x3d15df29	0.036589775
53	0xbbf06771	-0.00733655
54	0xbe224211	-0.15845515
55	0xbdab66dd	-0.08369229
56	0xbce2148d	-0.02759769
57	0xbe69695e	-0.227941
58	0xbd769671	-0.060202066
59	0x3dc87ad6	0.09789054
60	0xbe11394f	-0.14182018
61	0xbd8152d5	-0.06314627
62	0xbd6d22c3	-0.05789448
63	0xbdca8d9a	-0.098902896
64	0xbcf92a21	-0.030415596
65	0xbe064304	-0.13111502
66	0xbc8960d3	-0.016769802
67	0xbc484834	-0.012224246
68	0xbd913517	-0.07090204
69	0xbd2f0f33	-0.042739104
70	0x3dab41d7	0.08362167
71	0x3e5ef36c	0.21772546
72	0x3c739f2f	0.014869495
73	0xbc82a950	-0.015949875
74	0x3d0335e0	0.0320338
75	0xb8479db1	-4.759216e-05
76	0xbd100245	-0.035158414
77	0x3dc25a7c	0.09489915
78	0xbc8a74a1	-0.016901316
79	0x3d48f0de	0.049057834
80	0x3d868005	0.065673865
81	0xbd66a7ae	-0.056312256
82	0xbceb471e	-0.028720435
83	0xbd8fb28c	-0.07016477
84	0xba3ac5cc	-0.0007124811
85	0x3d4b4c8f	0.04963356
86	0xbd89fe90	-0.06738007
87	0x3da09d0e	0.07842456
88	0x3dc6bc2e	0.09703861
89	0x3cf3cc8d	0.029760623
90	0xbdc19a06	-0.09453206
91	0xbd4e0419	-0.050296877
92	0x3e6a5ada	0.2288622
93	0xbddcc5dd	-0.10779927
94	0xbd9f5151	-0.07779182
95	0x3b50d2c0	0.0031863898
96	0x3d26931b	0.040667634
97	0xbd03c2f1	-0.032168332
98	0xbdac6a84	-0.08418754
99	0xbc9f22e3	-0.019425815
100	0x3c045c7e	0.0080786925
101	0xbdfbffae	-0.123046264
102	0x3d3c27ed	0.045936514
103	0xbc323d26	-0.010878837
104	0xbd213010	-0.039352477
105	0x3e14e1f9	0.14539327
106	0x3d8c7a31	0.06859244
107	0x3d40e548	0.04709366
108	0x3d0ba9e6	0.034097575
109	0xbd367b41	-0.044551138
110	0xbd37d1f0	-0.044877946
111	0x3d59964c	0.05312185
112	0xbbbcd1cc	-0.0057623144
113	0xbc61db81	-0.013785244
114	0x3cff8b68	0.031194404
115	0x3d8dcaae	0.06923424
116	0x3d5b9d06	0.053616546
117	0x3cd94b49	0.026525157
118	0x3d4867a0	0.04892695
119	0x3d3a9e80	0.045561314
120	0x3d00f498	0.031483263
121	0x3d11d592	0.035604067
122	0x3e00dffd	0.12585445
123	0xbdad1f33	-0.084532164
124	0xbda701b7	-0.08154624
125	0x3d8da9b0	0.06917131
126	0x3c53be94	0.012923855
127	0xbd3d2961	-0.04618204
128	0xbe145186	-0.14484224
129	0x3d89e331	0.067327864
130	0x3c1b08f4	0.009462584
131	0x3da2f466	0.079567716
132	0xbe011b6b	-0.12608115
133	0xbdf2c3f5	-0.11853782
134	0xbd243ea0	-0.040098786
135	0x3d7f0ff6	0.06227108
136	0x3d174ff1	0.036941472
137	0xbd45f162	-0.048325904
138	0xbd0fc8da	-0.035103656
139	0xbda21877	-0.079148225
140	0xbd3c4c6c	-0.04597132
141	0x3d861af4	0.0654811
142	0x3d96b586	0.073588416
143	0x3de41bc3	0.11138108
144	0x3ca1ff74	0.01977513
145	0xbd75b8a2	-0.059990533
146	0xbd816773	-0.063185595
147	0x3d854424	0.065071374
148	0xbe108cad	-0.14116164
149	0xbe0f14bd	-0.13972755
150	0xbdc13b38	-0.09435123
151	0xbdf00dfb	-0.117214166
152	0xbe4d539e	-0.20051429
153	0xbc735ad2	-0.014853196
154	0xbd493883	-0.04912616
155	0xbd83a387	-0.06427675
156	0xbd471fc2	-0.04861427
157	0xbd9bc6dc	-0.07606289
158	0xbd917ba5	-0.071036614
159	0x3befb680	0.007315457
160	0x3c3c2f97	0.011485956
161	0x3da31c8c	0.07964429
162	0xbcf50061	-0.029907407
163	0x3c8c3b2f	0.017118065
164	0x3d63e8c1	0.055641893
165	0xbd2ec4e1	-0.042668227
166	0xbe118387	-0.1421033
167	0x3cefd4de	0.029276308
168	0x3db059f1	0.08610905
169	0xbd1e8263	-0.038698565
170	0xbddd8b3f	-0.10817575
171	0x3e33da93	0.17563848
172	0x3c9bc60c	0.019015335
173	0x3d16cdd6	0.036817394
174	0x3de4c7b6	0.11170904
175	0xbdcc54e2	-0.099771276
176	0x3bd16085	0.00638968
177	0xbe140fc2	-0.14459136
178	0xbbadf3be	-0.0053085973
179	0x3e1a5af7	0.15073763
180	0x3e5691e4	0.2095409
181	0x3dbfab6b	0.09358867
182	0xbd97956d	-0.074015476
183	0x3dd190f4	0.10232726
184	0xbc713ebf	-0.0147244325
185	0xbdd4d950	-0.103930116
186	0xbde60b88	-0.11232668
187	0xbe0a3c74	-0.13499624
188	0xbe1aa946	-0.15103635
189	0xbc723903	-0.0147841
190	0xbb60b82a	-0.0034289458
191	0x3c99a893	0.01875714
192	0x3cc3efe1	0.023918094
193	0xbda083fe	-0.078376755
194	0xbd7d020c	-0.06176953
195	0x3e0047a9	0.12527336
196	0xbc529df6	-0.012855044
197	0xbd89cf83	-0.06729033
198	0xbda2f1d5	-0.07956282
199	0x3db8ddad	0.09026656
200	0x3d16cce4	0.036816493
201	0xbd2be876	-0.04196974
202	0xbde49a5a	-0.11162253
203	0xbd472412	-0.048618384
204	0x3de8a105	0.11358837
205	0x3d8609e4	0.06544855
206	0x3d57ca00	0.052682877
207	0xbd7673da	-0.06016908
208	0x3ca3e0d1	0.020004662
209	0x3d8b4605	0.068004645
210	0xbcc10032	-0.023559663
211	0xbd97585d	-0.07389901
212	0xbd852084	-0.065003425
213	0x3e10d89b	0.14145128
214	0x3e07f6de	0.13277766
215	0x3e567e9b	0.20946734
216	0xbdb6b70f	-0.089216344
217	0xbe0ca425	-0.13734491
218	0xbe25d285	-0.16193588
219	0xbd60d376	-0.054889165
220	0x3b5d0262	0.0033723344
221	0x3c0c68c2	0.008569898
222	0x3ca26d22	0.01982743
223	0x3dd1d71f	0.10246109
224	0x3dbac29f	0.09119152
225	0x3d1580b1	0.036499683
226	0xbbc52102	-0.0060158977
227	0x3d5f890c	0.054574057
228	0xbce2390f	-0.027615098
229	0xbd95707d	-0.07296846
230	0xbd8f14ee	-0.06986414
231	0x399995f9	0.00029294172
232	0xbc25ee4b	-0.010127614
233	0xbcb6b513	-0.02230314
234	0xbd95a118	-0.07306117
235	0xbc8d9da6	-0.017287087
236	0x3dbdccb9	0.092675634
237	0x3b05a319	0.0020391403
238	0x3bf81eb0	0.0075720176
239	0xbd219dd3	-0.039457154
240	0x3de63f24	0.11242512
241	0xbc1cdb45	-0.009573762
242	0xbdf59758	-0.11991757
243	0x3c69d05a	0.014270866
244	0x3e7e34b8	0.24824798
245	0x3ed5f4f7	0.41788456
246	0xbdf4a57a	-0.11945625
247	0xbe2297ff	-0.15878294
248	0xbddfde71	-0.10931099
249	0xbe29d575	-0.16585334
250	0xbdf19da3	-0.11797645
251	0xbe12fa66	-0.14353332
252	0xbdf79fe7	-0.12091046
253	0x3ca09d93	0.019606387
254	0xbc8180bd	-0.015808458
255	0x3ca9f36a	0.020745952

bn3.weight f4 [64]
0	0x3f186f6a	0.59545004
1	0x3f122bd5	0.5709813
2	0x3f1819b6	0.5941423
3	0x3eca30b1	0.39490274
4	0x3ee239f0	0.44184828
5	0x3eec2964	0.4612533
6	0x3f00fc78	0.50385237
7	0x3eb76863	0.35821828
8	0x3f3283cb	0.6973235
9	0x3f0c02cb	0.5469176
10	0x3eecfada	0.46285135
11	0x3ed6a7ae	0.41924804
12	0x3f05b496	0.5222868
13	0x3ef04abb	0.46932015
14	0x3ed6f99a	0.41987306
15	0x3ef92b4c	0.48665845
16	0x3ec8757f	0.39152142
17	0x3ec7b688	0.39006448
18	0x3f06b39a	0.526178
19	0x3ee9e6cc	0.45683897
20	0x3ec7b4cf	0.39005134
21	0x3f0f02ae	0.55863464
22	0x3ec2b5df	0.38029382
23	0x3ec4f1f3	0.38465843
24	0x3eb670f1	0.35633042
25	0x3f09a116	0.5376142
26	0x3ee4dcdf	0.4469976
27	0x3ec6c919	0.388253
28	0x3eeb8ba8	0.46004987
29	0x3f01d5da	0.50716937
30	0x3f1681a1	0.5879155
31	0x3f01a7c8	0.5064664
32	0x3f12cc61	0.5734311
33	0x3f022a97	0.50846237
34	0x3f060b3f	0.5236091
35	0x3efb6755	0.49102274
36	0x3ec5b9a5	0.38618198
37	0x3edc0e27	0.42979547
38	0x3f02a427	0.51031727
39	0x3ee819bf	0.45332143
40	0x3f149174	0.58034444
41	0x3f142415	0.57867557
42	0x3f0d3a1e	0.55166805
43	0x3ecb54fb	0.39713272
44	0x3ee666e3	0.4500037
45	0x3edeece1	0.435401
46	0x3f34c2c5	0.70609695
47	0x3f172f8a	0.59056914
48	0x3f079ef5	0.52976924
49	0x3f286004	0.6577151
50	0x3ef6e849	0.48224095
51	0x3ed00991	0.406323
52	0x3ee64d99	0.44981077
53	0x3eeecd1c	0.4664086
54	0x3ee3a76e	0.44463676
55	0x3f162c61	0.58661467
56	0x3e88a3db	0.26687512
57	0x3f082cc0	0.53193283
58	0x3f1547cb	0.5831267
59	0x3f19561b	0.5989701
60	0x3ef1d2c9	0.4723113
61	0x3ef5a8f9	0.47980478
62	0x3ef2570a	0.4733203
63	0x3ef5b50d	0.47989693

bn3.bias f4 [64]
0	0xbec1d7ea	-0.37860042
1	0xbeb2d1e5	-0.34925762
2	0xbeda9090	-0.42688417
3	0xbe215cd2	-0.15758064
4	0xbe9417d8	-0.2892444
5	0xbe08c6ae	-0.1335704
6	0xbe919b1b	-0.2843865
7	0xbd982aff	-0.07430076
8	0xbeb0f32e	-0.3456053
9	0xbe3c537f	-0.18391226
10	0xbeecae8e	-0.46226925
11	0xbeecff1e	-0.4628839
12	0xbe89a674	-0.26884806
13	0xbe884505	-0.26615158
14	0xbdc275ff	-0.09495162
15	0xbe47e07c	-0.19519228
16	0xbe6b5fef	-0.22985815
17	0xbe62d656	-0.22152075
18	0xbe580c30	-0.21098399
19	0xbe7cb244	-0.24677378
20	0xbccad98a	-0.024761934
21	0xbe566483	-0.2093678
22	0xbe5e4899	-0.21707381
23	0xbe67e03e	-0.22644135
24	0xbd4da631	-0.05020732
25	0xbe79341d	-0.24336286
26	0xbe293278	-0.16523159
27	0xbe7642be	-0.24048898
28	0xbe408bcb	-0.18803327
29	0xbec23d9c	-0.3793763
30	0xbf04e8ce	-0.5191773
31	0xbe978dcf	-0.2960038
32	0xbe9164f9	-0.2839735
33	0xbe72fff9	-0.23730458
34	0xbe2d48d0	-0.16922307
35	0xbe8049be	-0.2505626
36	0xbe3804a4	-0.1797052
37	0xbef4876e	-0.47759575
38	0xbe4b9771	-0.19881989
39	0xbe274076	-0.16333184
40	0xbe721f31	-0.23644711
41	0xbe9c33b9	-0.3050821
42	0xbea0ade7	-0.31382677
43	0xbe9951f5	-0.2994534
44	0xbec269a7	-0.3797123
45	0xbe29e888	-0.1659261
46	0xbef3f37b	-0.47646698
47	0xbedfb859	-0.43695334
48	0xbe66a954	-0.22525531
49	0xbeca4270	-0.39503813
50	0xbe82518b	-0.25452837
51	0xbde5e185	-0.11224655
52	0xbe27f077	-0.16400324
53	0xbe36d4f1	-0.17854668
54	0xbe380e94	-0.17974311
55	0xbe6f5797	-0.23373257
56	0xbd88b52c	-0.06675181
57	0xbee5d683	-0.44890222
58	0xbe7f72c9	-0.24946131
59	0xbedb79de	-0.42866415
60	0xbec20cb9	-0.37900332
61	0xbe29da05	-0.16587074
62	0xbeb0ce90	-0.34532595
63	0xbe6212bc	-0.22077459

bn3.running_mean f4 [64]
0	0xbd166550	-0.036717713
1	0xbf03a175	-0.5141824
2	0xbe0a5f7c	-0.13512987
3	0xbe2edab5	-0.17075618
4	0xbcfde657	-0.030993624
5	0xbed09432	-0.40738064
6	0xbe583461	-0.21113731
7	0xbe764c85	-0.24052627
8	0xbea9b6ae	-0.33147186
9	0xbee5dc9a	-0.44894868
10	0xbe4531ec	-0.19257325
11	0xbeb706f4	-0.35747492
12	0xbeab9b60	-0.3351698
13	0xbdca8222	-0.09888102
14	0xbedd3256	-0.43202466
15	0xbe6536a8	-0.22384131
16	0xbe144b0d	-0.14481755
17	0x3cdc50de	0.02689403
18	0xbda4671c	-0.08027479
19	0xbc7d68e5	-0.015466903
20	0xbe1025da	-0.14076939
21	0xbeb4d0c6	-0.35315531
22	0xbe5416df	-0.2071185
23	0xbeb0a1b9	-0.34498385
24	0xbc15b2c4	-0.009136859
25	0xbf0fca60	-0.56168175
26	0xbca1c139	-0.019745456
27	0xbdf379f2	-0.118884936
28	0xbec018ae	-0.3751883
29	0x3a1ae38f	0.00059085427
30	0xbe8204fa	-0.25394422
31	0xbe9ef878	-0.31048942
32	0xbf0774b9	-0.5291248
33	0xbeda1e4a	-0.42601234
34	0xbe668170	-0.22510314
35	0xbec86451	-0.39139035
36	0x3ccb2275	0.024796704
37	0xbe68c1f1	-0.22730233
38	0xbeb00949	-0.34382084
39	0xbe8ef75b	-0.27923092
40	0xbe36d927	-0.17856275
41	0xbedaa097	-0.42700645
42	0xbe95b37d	-0.292385
43	0x3e74fb94	0.23924094
44	0xbe5966ce	-0.21230623
45	0xbea3f612	-0.32023674
46	0xbec9b125	-0.39392963
47	0xbec6aa82	-0.38801962
48	0xbeb61ff1	-0.35571244
49	0xbecacfc3	-0.39611635
50	0xbe02575e	-0.1272864
51	0xbdef7a83	-0.11693289
52	0xbe8eec87	-0.2791483
53	0xbea345e8	-0.31889272
54	0xbe5abe71	-0.2136171
55	0xbeec0749	-0.46099308
56	0xbd5fab23	-0.054606568
57	0x3d61df00	0.05514431
58	0xbeba54a5	-0.36392704
59	0xbe8c0c94	-0.27353346
60	0xbd070d91	-0.032971922
61	0xbdf6e0dc	-0.12054607
62	0xbead9642	-0.339037
63	0xbe8b9975	-0.27265516

bn3.running_var f4 [64]
0	0x3e3f761d	0.186974
1	0x3e526053	0.20544557
2	0x3e2037dd	0.1564631
3	0x3e3e7d32	0.18602446
4	0x3da87a9c	0.08226511
5	0x3de8616c	0.11346707
6	0x3dfbafe0	0.12289405
7	0x3d9ac113	0.07556357
8	0x3e4d04ef	0.20021413
9	0x3e12ad60	0.1432395
10	0x3e156a71	0.14591385
11	0x3de2140f	0.11038982
12	0x3dd97094	0.10617176
13	0x3e2a2531	0.1661575
14	0x3e0097dc	0.1255793
15	0x3e136ef3	0.14397793
16	0x3df89fd2	0.12139858
17	0x3dad897b	0.08473488
18	0x3e1767b3	0.14785652
19	0x3d618cb2	0.055065818
20	0x3dd1a08f	0.10235702
21	0x3e8b4940	0.27204323
22	0x3db03fc4	0.08605912
23	0x3dc6d5f7	0.09708779
24	0x3dd37d7c	0.103266686
25	0x3e3e0760	0.18557501
26	0x3e04c3ea	0.1296536
27	0x3d900878	0.07032865
28	0x3daa1559	0.08304853
29	0x3e11c4c6	0.1423522
30	0x3e245b07	0.16050349
31	0x3dac17a3	0.08402946
32	0x3e445b2d	0.19175406
33	0x3de1bb79	0.11022086
34	0x3e1b1403	0.15144353
35	0x3e4a4b97	0.19755398
36	0x3d96d5aa	0.07364972
37	0x3e073431	0.13203503
38	0x3e3d8a06	0.18509683
39	0x3e004131	0.12524869
40	0x3e24a426	0.16078243
41	0x3e80401a	0.25048906
42	0x3e50c42d	0.20387335
43	0x3da70fe3	0.08157327
44	0x3e353126	0.1769453
45	0x3e1d98e6	0.15390357
46	0x3eb71668	0.35759282
47	0x3e57f330	0.21088862
48	0x3e307e2d	0.17235632
49	0x3e510130	0.20410609
50	0x3db0533f	0.08609628
51	0x3da4da87	0.08049493
52	0x3dc9a678	0.098462045
53	0x3e28e71e	0.16494414
54	0x3dfd4597	0.12366789
55	0x3e4fb6ec	0.20284623
56	0x3d5c6f53	0.053817105
57	0x3e259afd	0.16172405
58	0x3def2b07	0.11678129
59	0x3e46ed98	0.19426572
60	0x3dbbb74c	0.091658205
61	0x3e11ada8	0.14226401
62	0x3e2d0c1e	0.16899154
63	0x3dfdaee3	0.123868726

conv4.weight f4 [64, 64, 3, 3]
0	0xbd14cda5	-0.03632893
1	0x3c4f2f22	0.012645515
2	0x3d0909ee	0.033456735
3	0xbd2b8232	-0.04187221
4	0xbc3f76c5	-0.011686032
5	0xbc70e9b0	-0.014704153
6	0xbcb1e91f	-0.021717606
7	0xbb50d240	-0.00318636
8	0xbcd338bc	-0.025783889
9	0xba4d29fc	-0.00078263856
10	0xbd3b44d3	-0.045719933
11	0x3d066a2c	0.032816097
12	0xbd3abb42	-0.04558874
13	0xbcd07228	-0.025445059
14	0xbbb2f40b	-0.005461221
15	0xbd841fa2	-0.06451346
16	0xbb7bc11a	-0.0038414658
17	0x3d0194fb	0.03163622
18	0x3d05a23f	0.032625433
19	0x3cb70d10	0.022345096
20	0x3bf53968	0.00748365
21	0x3d29c5ce	0.041448407
22	0x3c38f5c8	0.011289068
23	0x3aba18fe	0.0014198122
24	0x3d1068b5	0.035256106
25	0x3cb33f2b	0.021880707
26	0xbbea51e5	-0.007150876
27	0x3d53fc23	0.05175413
28	0x3c14ef80	0.009090304
29	0x3cb3f61a	0.021967936
30	0x3db099ba	0.08623071
31	0x3d99b718	0.075056255
32	0x3d851526	0.06498174
33	0x3dc785da	0.09742327
34	0x3d2f031a	0.042727567
35	0x3d3dee56	0.046369873
36	0xbbe7dba5	-0.007075744
37	0x3c3f4965	0.011675213
38	0xbca5cea5	-0.020240137
39	0x3d2b5756	0.041831337
40	0x3b1001d0	0.0021973737
41	0x3b5ccb37	0.0033690461
42	0x3c6a31d2	0.014294105
43	0x3da5bbc1	0.08092452
44	0x37d94adc	2.5903275e-05
45	0xbcd630b9	-0.02614628
46	0xba192663	-0.0005842207
47	0xbd2c58b0	-0.042076766
48	0xbd19e7e6	-0.03757467
49	0xbc9a5857	-0.018840952
50	0x3be6aeeb	0.007039895
51	0xbd680593	-0.05664594
52	0xbd24ec30	-0.04026431
53	0xbd20b13c	-0.039231524
54	0x3d2da39b	0.042392354
55	0x3c7ebe62	0.0155483205
56	0xbc94d02f	-0.018165676
57	0x3d844a75	0.06459514
58	0x3d3a2df9	0.045454
59	0x3ce39431	0.027780624
60	0x3de99e57	0.11407154
61	0x3dbf8bcd	0.09352837
62	0x3d47fc7f	0.048824783
63	0xbd16b28f	-0.03679138
64	0xbc817df8	-0.015807137
65	0x3d0560ee	0.032563142
66	0xbc62d00a	-0.013843546
67	0xbc4adfc2	-0.01238245
68	0x3ce12c4f	0.027486948
69	0x3c36d8f9	0.011160129
70	0x3b9df7cf	0.004820801
71	0x3d401bae	0.046901397
72	0xbaa03f43	-0.0012225885
73	0x3ba8818c	0.0051423963
74	0x3c0d9844	0.00864226
75	0xbb5a24ae	-0.0033286023
76	0x3d45da1d	0.048303712
77	0x3d6b6dd7	0.0574778
78	0x3a541bd7	0.00080913067
79	0xbc686cba	-0.014186079
80	0x3d2210c9	0.03956679
81	0x3c152255	0.009102424
82	0xbc2185ea	-0.009858588
83	0xbc3bdce7	-0.011466241
84	0x3bffb123	0.0078030988
85	0xbd393b28	-0.04522243
86	0xbd4d9f43	-0.050200712
87	0xbd733b3a	-0.059382655
88	0xbd62e8de	-0.05539786
89	0xbda336ac	-0.07969412
90	0xbc83d8a6	-0.016094517
91	0x3c18a304	0.00931621
92	0xbba10194	-0.004913518
93	0xbcca8103	-0.02471972
94	0xbd287c21	-0.041134004
95	0xbcbfbdad	-0.023405874
96	0xbbed1fdc	-0.007236464
97	0xbd0e2f00	-0.03471279
98	0xbbaff396	-0.005369614
99	0x3c4a02ae	0.01232974
100	0x3ca1f783	0.019771343
101	0xbc8d1863	-0.017223543
102	0x3cb9d5a1	0.022684874
103	0x3d026a39	0.031839583
104	0xbc34fa43	-0.011045995
105	0x3d866f26	0.06564169
106	0x3d13be85	0.036070365
107	0xbb71c94e	-0.0036893669
108	0x3d75f2f7	0.060046162
109	0x3ce8c7f0	0.02841565
110	0x3d50ecbb	0.051007014
111	0x3ccaf305	0.024774084
112	0x3ba1e865	0.0049410337
113	0xbc1cd163	-0.009571406
114	0xbc8daf0f	-0.017295389
115	0x3cd22185	0.025650749
116	0xbb32784b	-0.0027232345
117	0xbd1b7aca	-0.037958898
118	0xbc942c09	-0.018087404
119	0x3c2201b3	0.0098881
120	0x3c1ca6ed	0.009561283
121	0x3c24d250	0.010059908
122	0x3cc233ef	0.023706404
123	0xbc175b2d	-0.009238047
124	0xbc9e120c	-0.019295715
125	0xbcd82830	-0.02638635
126	0xb9953ded	-0.00028465633
127	0xbbcb6f72	-0.0062083537
128	0xbb96a143	-0.0045968606
129	0xbd0c936e	-0.034320287
130	0x3c5f3843	0.013624254
131	0xbbfc7e48	-0.0077054836
132	0x3c81f740	0.015864968
133	0xbc5a657d	-0.013329861
134	0x38c5d67d	9.4336436e-05
135	0x3c9d0441	0.019167067
136	0xbc1d0288	-0.009583123
137	0xbc2a2031	-0.010383652
138	0x3d09dcc5	0.033657808
139	0xbc350dd7	-0.011050663
140	0x3c205efc	0.009788271
141	0x3c9a1cc7	0.01881255
142	0xbc42e628	-0.011895694
143	0x3bb633d9	0.00556038
144	0x3d5f3fcb	0.054504197
145	0x3c5e90c8	0.013584323
146	0xbc84ecaf	-0.01622614
147	0x3d39ad53	0.04533131
148	0xbb49105a	-0.0030679912
149	0xba8984a8	-0.0010491805
150	0xbcf75e73	-0.030196404
151	0xbcb98dd8	-0.022650644
152	0xbcac23e5	-0.02101321
153	0x3bb1f4e4	0.0054308046
154	0x3d04d756	0.032431923
155	0x3d4d7399	0.05015907
156	0x3c8cc3be	0.01718318
157	0xba9bda8a	-0.0011890691
158	0xbd136c17	-0.035991754
159	0x3d86fe50	0.06591475
160	0x3ca30b95	0.019902984
161	0x3cb489f0	0.02203843
162	0xbd153410	-0.036426604
163	0xbdba41cc	-0.09094581
164	0xbd9fc092	-0.07800402
165	0xbd34247e	-0.043980114
166	0xbd7a7367	-0.061145213
167	0xbd297437	-0.041370597
168	0xbd63a939	-0.055581305
169	0xbd20e63a	-0.03928206
170	0xbd82a13f	-0.063784115
171	0xbcf38b37	-0.029729469
172	0xbbc41e75	-0.005985076
173	0xbd440373	-0.047854852
174	0x3ca7ad7c	0.020468466
175	0xbc402d8a	-0.011729607
176	0x3d1891bc	0.037248358
177	0xbc0de5e4	-0.008660767
178	0x3cf4dd78	0.02989076
179	0xbc83ff3c	-0.016112916
180	0xbd2cd640	-0.042196512
181	0xbd0573f8	-0.0325813
182	0x3c40a162	0.011757227
183	0xbcc63a65	-0.024197767
184	0x3c85dbc1	0.016340138
185	0x3d2bedfa	0.041975
186	0x3d3beca5	0.04587998
187	0x3d4dad85	0.05021431
188	0x3d091d6d	0.03347533
189	0x3d278501	0.040898327
190	0x3ccb80f4	0.024841763
191	0x3d8d5c6c	0.06902394
192	0x3bc83acb	0.0061105243
193	0x3d05d251	0.032671276
194	0x3d0085cc	0.0313776
195	0x3dbda1f7	0.09259408
196	0x3c843e02	0.016142849
197	0x3d652f8d	0.05595355
198	0xbbdddb53	-0.0067705302
199	0xbcc547f9	-0.02408217
200	0xbd0de218	-0.034639448
201	0x3d350cc4	0.044201627
202	0x3c8367e9	0.01604076
203	0xbd4e814b	-0.050416272
204	0x3c2ec7c9	0.01066775
205	0xbc22696c	-0.00991283
206	0xbb640f50	-0.0034799166
207	0x3cfceb39	0.030873882
208	0x3d067886	0.032829784
209	0x3d9ec55c	0.07752487
210	0x3d5c6f16	0.053816877
211	0x3d090b97	0.03345832
212	0x3d1830c3	0.037155878
213	0x3d16c4db	0.03680883
214	0x3c2dbe3d	0.010604438
215	0xbc9d3e7b	-0.019194832
216	0xbc890524	-0.016726084
217	0xba4eb11e	-0.0007884669
218	0xbd4db7c7	-0.05022409
219	0xbd0dc5b4	-0.034612373
220	0xbc12b363	-0.008953902
221	0xbd60ebb7	-0.054912295
222	0xbcd69fa2	-0.026199166
223	0x3b0857cf	0.002080429
224	0xbd7c80ef	-0.0616464
225	0x3acccfba	0.0015625872
226	0xbc948312	-0.018128905
227	0x3cd80da7	0.026373697
228	0x3b24b3b0	0.0025131516
229	0xbaba4bdd	-0.0014213283
230	0x3b59502a	0.0033159354
231	0x3b04e565	0.0020278331
232	0xbccf7b44	-0.025327332
233	0x3c2d8927	0.010591782
234	0x3c38b556	0.011273703
235	0xbce0ff48	-0.027465478
236	0xbd31e790	-0.043433726
237	0x3c900796	0.017581742
238	0xbcd9d50f	-0.026590852
239	0xbce757c5	-0.028240094
240	0x3c990c2b	0.01868256
241	0x3b1e64a5	0.0024168876
242	0xbc3c1b9b	-0.011481191
243	0xbcab99ad	-0.020947302
244	0xbcb33cdd	-0.021879608
245	0xbd74e495	-0.059788305
246	0xbcd6f55c	-0.026240043
247	0xbd4f95c3	-0.050679933
248	0xbd8051a9	-0.062655754
249	0xbca27bae	-0.019834366
250	0xbb36c57e	-0.002788871
251	0xbd60d9bc	-0.054895148
252	0x3cfe96b5	0.031077722
253	0x3ccb9f97	0.024856372
254	0x3cc7316e	0.024315562
255	0x3cfff517	0.031244798

bn4.weight f4 [64]
0	0x3fb09e5a	1.3798325
1	0x3fc912f7	1.5708913
2	0x3fb14ac0	1.3850937
3	0x3fa4ae78	1.2865744
4	0x3faae678	1.3351583
5	0x3f99bd66	1.2010925
6	0x3fcfb78e	1.6227891
7	0x3fc9a159	1.5752364
8	0x3fb35fde	1.4013631
9	0x3fa83b60	1.314312
10	0x3fbe56ca	1.4870236
11	0x3feb3e02	1.8378298
12	0x3fc7a255	1.5596415
13	0x3f826b7a	1.0189049
14	0x3f9a32b8	1.2046728
15	0x3fb039e6	1.3767669
16	0x3fc96476	1.5733783
17	0x3fdcdcb2	1.7254851
18	0x3fbbadad	1.4662377
19	0x3fbcb143	1.4741596
20	0x3fb82c3e	1.4388502
21	0x3fda1ede	1.704067
22	0x4003239e	2.049049
23	0x3febf988	1.8435526
24	0x3fb57cf4	1.4178758
25	0x3ff38c74	1.9027238
26	0x3fc126fd	1.5090023
27	0x3f9c1364	1.2193418
28	0x3ffbd72e	1.9675043
29	0x3ff86ac6	1.9407585
30	0x3ffb8af4	1.965178
31	0x3fe85427	1.8150681
32	0x3fa5981f	1.2937049
33	0x3fe3379a	1.7751343
34	0x3f8edfc8	1.1162043
35	0x3fbb3481	1.4625398
36	0x3fb90eaa	1.44576
37	0x3fc654b2	1.5494597
38	0x3fbf92a9	1.4966632
39	0x3fac676f	1.3469065
40	0x3fe785f4	1.8087754
41	0x4003d764	2.0600214
42	0x3f988c8f	1.1917895
43	0x3f8a10fe	1.0786436
44	0x400601a0	2.0938492
45	0x3ffe67bc	1.9875407
46	0x3fe0ec66	1.7572143
47	0x40106b9d	2.2565682
48	0x3fbfdc79	1.4989158
49	0x3fb751f5	1.4321886
50	0x3fb14eed	1.3852211
51	0x3fef9cdc	1.8719745
52	0x3fbdcf9e	1.4828985
53	0x3f7e90f8	0.99439955
54	0x4008513c	2.1299582
55	0x3fb56160	1.4170341
56	0x3fffe87a	1.9992821
57	0x3fa6a0d4	1.3017831
58	0x40059061	2.0869372
59	0x3fca916e	1.5825632
60	0x3fdef6f7	1.7419118
61	0x3ff6a9e8	1.9270601
62	0x3f7b1314	0.98075986
63	0x3f56944a	0.8382002

bn4.bias f4 [64]
0	0x3d848555	0.064707436
1	0x3e18fd01	0.14940263
2	0x3e272a40	0.16324711
3	0x3e22c6ba	0.1589612
4	0x3c088e32	0.008334683
5	0x3e4bce86	0.19903001
6	0x3d657db5	0.056028087
7	0x3cfbd769	0.030742364
8	0x3e163b47	0.1467105
9	0x3da6f115	0.081514515
10	0x3e65efc6	0.22454748
11	0x3e685562	0.22688821
12	0x3e1b65bf	0.15175532
13	0x3dd5d191	0.10440362
14	0x3d6c09bb	0.057626467
15	0x3d9b5581	0.07584668
16	0x3e7fbdb1	0.24974705
17	0x3c581306	0.013188129
18	0x3dc32c34	0.095299155
19	0x3ddfcb9b	0.109275065
20	0x3e5398e9	0.206638
21	0x3dd91f29	0.106016465
22	0x3e8b5380	0.27212143
23	0x3dcdf3a0	0.100562334
24	0x3df94bf9	0.12172694
25	0x3d5ca3f6	0.053867303
26	0x3df4cbf6	0.11952965
27	0x3e0d8bee	0.1382291
28	0x3ea7a076	0.3273961
29	0x3dce90a2	0.1008618
30	0x3e895980	0.26826096
31	0x3dbfe750	0.09370291
32	0x3e5bcf88	0.21465886
33	0x3dee9dae	0.11651169
34	0x3e5b73d1	0.21430899
35	0x3e10cb23	0.1413999
36	0x3e40f856	0.18844733
37	0x3ddef2d8	0.108861625
38	0x3e7fd6f8	0.24984348
39	0x3e53f8e1	0.20700409
40	0xbc62964d	-0.01382978
41	0xbda522b3	-0.08063259
42	0x3e322e64	0.17400509
43	0x3e16a76a	0.14712301
44	0x3d6be241	0.05758882
45	0x3f0f2dd6	0.55929315
46	0x3d1050c2	0.035233267
47	0x3d3d8112	0.04626567
48	0x3cea1482	0.028574232
49	0x3d2511b6	0.040300094
50	0x3e0d6e2b	0.13811557
51	0x3e3b574b	0.18295018
52	0x3d4397e3	0.047752272
53	0x3d106f1c	0.035262212
54	0x3df2ac29	0.11849243
55	0x3ddd468b	0.10804471
56	0x3ce1e867	0.027576638
57	0x3e391c84	0.18077284
58	0x3d58296d	0.05277388
59	0x3e40a747	0.18813811
60	0x3d750fac	0.0598294
61	0x3d2d6e40	0.04234147
62	0x399de429	0.00030115366
63	0x3d91c49e	0.0711758

bn4.running_mean f4 [64]
0	0xbd89f6de	-0.06736539
1	0x3d239297	0.03993472
2	0xbd9f3286	-0.077733085
3	0xbd2e7f00	-0.042601585
4	0xbc33fce6	-0.010985589
5	0x3cf2b4eb	0.029627284
6	0xbd6a2cbf	-0.05717158
7	0x3d4000b5	0.046875674
8	0xbb5deca2	-0.0033862968
9	0x3d894905	0.067033805
10	0xbd153551	-0.0364278
11	0x3b892ab6	0.0041859997
12	0x3d791719	0.060813043
13	0xbcf9febe	-0.030516978
14	0x3c289c1b	0.010291125
15	0xbd554202	-0.052064903
16	0xbd0ea3e9	-0.034824286
17	0x3dc139e0	0.09434867
18	0xbcdb1763	-0.02674455
19	0x3d9f1a85	0.0776873
20	0xbdb173f6	-0.08664696
21	0x3d376e49	0.04478291
22	0xbd9c5952	-0.07634224
23	0x3de282cb	0.11060103
24	0x3c07a19a	0.008278275
25	0xbd0eff76	-0.034911595
26	0x3cce8ea5	0.025214503
27	0xbe1614ff	-0.14656447
28	0xbdca333f	-0.09873056
29	0xbcf937a2	-0.030422036
30	0xbd0580c8	-0.03259352
31	0xbca02d05	-0.019552717
32	0x3d864755	0.06556574
33	0x3c1b6601	0.009484769
34	0x3da1d8f4	0.07902709
35	0xbdfde1ea	-0.12396605
36	0x3d1bd4c5	0.03804471
37	0x3dbbf175	0.09176914
38	0x3cad2a59	0.021138357
39	0xbd042971	-0.032266084
40	0x3db7aff2	0.08969106
41	0x3e49db55	0.19712575
42	0x3d27383e	0.04082512
43	0xbcc7c53d	-0.024386043
44	0x3c844b28	0.016149119
45	0xbd545332	-0.051837154
46	0xbd57d18d	-0.052690078
47	0xbe6062a6	-0.21912631
48	0x3dff7571	0.12473572
49	0xbe44c31f	-0.19215058
50	0xbdc5007a	-0.096192315
51	0x3cf11472	0.029428694
52	0x3d9951bd	0.074862935
53	0xbd7e621b	-0.06210528
54	0x3d05d886	0.032677196
55	0xbe14c5bd	-0.14528556
56	0xbd27118b	-0.040788215
57	0xbd6b9e3f	-0.057523962
58	0x3e1d93cd	0.15388413
59	0x3bdf88f1	0.0068217446
60	0xbcaf611d	-0.021408612
61	0x3ce98b71	0.028508874
62	0x3d54b236	0.051927768
63	0xbd4cf53a	-0.050038554

bn4.running_var f4 [64]
0	0x3c52630b	0.0128409965
1	0x3c8d9823	0.017284459
2	0x3c6918ee	0.014227135
3	0x3c4cec61	0.012507529
4	0x3c45aed6	0.01206561
5	0x3c2ca016	0.010536214
6	0x3c847b80	0.01617217
7	0x3c9438a9	0.018093424
8	0x3c4ccc99	0.012499952
9	0x3c463fbc	0.012100156
10	0x3c6e133b	0.014530952
11	0x3cda0fd7	0.026618881
12	0x3ca7ab2c	0.020467363
13	0x3c299426	0.010350263
14	0x3c0bc2aa	0.008530298
15	0x3c60b6ea	0.013715485
16	0x3c9f781d	0.019466454
17	0x3c8f451d	0.01748901
18	0x3c85c069	0.0163271
19	0x3c5af492	0.013363974
20	0x3c81147f	0.015756844
21	0x3ca96234	0.02067671
22	0x3cf0066c	0.029299937
23	0x3cbc4abb	0.022984853
24	0x3c6f7bf8	0.014616959
25	0x3ccbbb8b	0.0248697
26	0x3c5fec33	0.013667154
27	0x3c1bd974	0.009512294
28	0x3cc15c6c	0.02360364
29	0x3ceca4c8	0.028887168
30	0x3cfef4c3	0.03112257
31	0x3ccab156	0.024742763
32	0x3c57f57f	0.013181089
33	0x3c89eb1b	0.01683574
34	0x3c2390ba	0.009983236
35	0x3c736a33	0.014856863
36	0x3c9f16f4	0.019420125
37	0x3c9bd629	0.019023018
38	0x3c8655ae	0.016398277
39	0x3c57b3e6	0.01316545
40	0x3cb57498	0.022150323
41	0x3cd90d6d	0.02649566
42	0x3c2c8607	0.0105300015
43	0x3bf31001	0.0074176793
44	0x3cfe15a1	0.031016173
45	0x3ce88fe2	0.028388921
46	0x3cbd945d	0.023142034
47	0x3d09ad08	0.03361228
48	0x3c7aec4c	0.015315127
49	0x3c7b2f23	0.0153310625
50	0x3c428203	0.0118718175
51	0x3cc8b5d5	0.024500767
52	0x3c740fa8	0.014896311
53	0x3c172dc6	0.009227222
54	0x3d08f3d5	0.03343566
55	0x3c3eedcb	0.011653374
56	0x3cc91dd2	0.024550352
57	0x3c3a2c71	0.011363135
58	0x3cd5b7da	0.026088644
59	0x3c9e0ba6	0.019292664
60	0x3c8f96b9	0.017527925
61	0x3cc5d92b	0.024151405
62	0x3c0d6d3d	0.0086320015
63	0x3bc6159e	0.0060450574

classifier.weight f4 [10, 64]
0	0x3e49298c	0.19644755
1	0x3e47c502	0.19508746
2	0x3f02b226	0.5105308
3	0xbe5ae326	-0.21375713
4	0x3e15fda7	0.14647542
5	0xbe868ca3	-0.26279172
6	0xbd9c30a1	-0.07626463
7	0x3e83d180	0.25745773
8	0xbf2889cb	-0.65835255
9	0x3f0c4110	0.5478678
10	0x3f4f947b	0.8108594
11	0x3f273737	0.65318626
12	0xbdc55a2f	-0.09636342
13	0xbd85a0e9	-0.06524832
14	0xbe6b6598	-0.22987974
15	0xbf36108a	-0.71118987
16	0x3f531dd0	0.82467365
17	0xbe0732cf	-0.13202976
18	0x3f0cc566	0.54988706
19	0x3f1f16cb	0.62144154
20	0x3dc561fa	0.09637828
21	0xbf507815	-0.8143323
22	0xbca20177	-0.01977609
23	0xbf005ae6	-0.501387
24	0xbe53ea65	-0.20694883
25	0xbe2bebd5	-0.16789182
26	0x3f03793a	0.5135685
27	0x3f527bf1	0.8222037
28	0x3f4027bb	0.75060624
29	0xbf37743f	-0.7166175
30	0xbf025ef2	-0.50926125
31	0x3fa40726	1.2814682
32	0x3ec18ff4	0.3780514
33	0xbf136912	-0.575822
34	0xbecc7cee	-0.39939064
35	0xbe2854eb	-0.16438644
36	0xbe86eef5	-0.26354185
37	0xbe023fad	-0.12719603
38	0x3e1e735b	0.15473692
39	0x3f368ed4	0.7131169
40	0xbe977a7d	-0.2958564
41	0xbed33a46	-0.41255397
42	0x3dc7e993	0.097613476
43	0xbe9b7994	-0.30366194
44	0xbf1e7e92	-0.6191188
45	0xbf075c6c	-0.528754
46	0xbef6647b	-0.48123536
47	0xbf34af5c	-0.7058008
48	0x3e426f75	0.1898783
49	0x3d3ec927	0.046578553
50	0xbea7e8a6	-0.32794684
51	0x3e4bb092	0.19891575
52	0xbf1613f5	-0.586242
53	0xbe3b8037	-0.18310629
54	0x3ed3ae64	0.41343987
55	0x3ee83cdc	0.45358932
56	0x3f9295b0	1.1451931
57	0x3e05c70f	0.13064216
58	0xbe38a983	-0.18033414
59	0xbf0ca889	-0.54944664
60	0xbc990608	-0.018679634
61	0xbecb2943	-0.39679918
62	0xbe7df461	-0.24800254
63	0xbeb4f158	-0.3534038
64	0xbc81e444	-0.015855916
65	0xbe4db104	-0.20087057
66	0xbea85eb4	-0.32884753
67	0x3f13262c	0.5748012
68	0xbed617f4	-0.4181515
69	0xbec4cf8a	-0.3843959
70	0xbf130add	-0.5743845
71	0xbe91f505	-0.28507248
72	0x3efc485b	0.49273953
73	0x3ded03d2	0.11572994
74	0xbcceb983	-0.025234943
75	0x3f87eed3	1.0619758
76	0xbed3d7ee	-0.4137568
77	0x3db237fe	0.08702086
78	0x3ed75e6c	0.42064226
79	0x3e1f7d30	0.15575099
80	0xbe738e6a	-0.23784795
81	0xbd8af855	-0.06785647
82	0x3f3d1704	0.73863244
83	0xbe6c2068	-0.23059237
84	0xbe9dcf9e	-0.30822462
85	0xbdc95138	-0.09829944
86	0xbf006e72	-0.50168526
87	0xbece4c81	-0.40292743
88	0x3e09fc86	0.13475236
89	0x3f600286	0.8750385
90	0x3d071d4f	0.032986935
91	0xbdb0704d	-0.0861517
92	0xbf2998c4	-0.66248727
93	0xbf0383d0	-0.51373005
94	0xbec9ea37	-0.39436504
95	0xbd93125b	-0.071812354
96	0xbe789f74	-0.24279577
97	0x3f6fa941	0.93617636
98	0xbdd0e2ca	-0.101995066
99	0x3cf74984	0.030186422
100	0x3f0852d4	0.53251386
101	0x3fa73ff9	1.3066398
102	0x3f158f67	0.5842194
103	0xbdbfc47b	-0.093636476
104	0xbf18ad73	-0.5963966
105	0xbf2e9a52	-0.68204224
106	0xbf1e50e7	-0.618422
107	0x3e1b10ec	0.15143174
108	0x3b8b17e8	0.004244793
109	0xbea47930	-0.3212371
110	0x3ed92471	0.42410615
111	0x3f4e6718	0.8062606
112	0x3e14279d	0.14468236
113	0xbebc50f7	-0.3678052
114	0x3f31bfc8	0.6943326
115	0x3d6b3149	0.05742005
116	0x3e482f01	0.1954918
117	0x3de7249a	0.11286278
118	0xbda4620d	-0.08026514
119	0x3dfff6ca	0.12498243
120	0xbf1b7942	-0.607319
121	0xbf0071dd	-0.5017374
122	0xbee69044	-0.4503194
123	0xbef89800	-0.48553467
124	0xbefe4cbb	-0.49667916
125	0xbe9f7cd6	-0.3114993
126	0x3de130be	0.10995625
127	0x3ee814a3	0.45328245
128	0xbf5da421	-0.86578566
129	0x3f11b023	0.5690939
130	0x3e042be6	0.12907371
131	0xbea5e04a	-0.3239768
132	0x3eb4373a	0.35198385
133	0x3e04659c	0.12929386
134	0xbeff1434	-0.498201
135	0xbf1e77e0	-0.61901665
136	0x3f153b9e	0.58294094
137	0x3ef7c29e	0.4839067
138	0xbf393eb9	-0.7236133
139	0xbf817364	-1.011334
140	0x3ef28fc3	0.47375306
141	0xbdcaf9a3	-0.09910896
142	0x3f41a335	0.7563966
143	0x3e8bd53d	0.27311125
144	0x3e018c96	0.12651286
145	0x3f1cce76	0.61252534
146	0xbf24b5c8	-0.64339876
147	0x3f0505f2	0.51962197
148	0xbe4746ac	-0.19460553
149	0xbecb25df	-0.3967733
150	0xbc920dfd	-0.017828936
151	0x3e3dd81e	0.18539473
152	0xbe3fe22d	-0.18738623
153	0xbdca4080	-0.09875584
154	0x3f5ba6ab	0.8580119
155	0xbecd49b8	-0.40095305
156	0xbe8d3564	-0.27579796
157	0xbf65eb13	-0.8981182
158	0x3e982a84	0.29719937
159	0x3f4255f4	0.75912404
160	0xbe121fba	-0.14269915
161	0x3f7d95af	0.99056524
162	0x3e9bef54	0.3045603
163	0x3e0cf9e5	0.13767202
164	0xbeefdee6	-0.46849746
165	0xbec3ffb2	-0.38281018
166	0x3f1f4b98	0.6222472
167	0xbdb0681e	-0.08613609
168	0xbf051481	-0.5198441
169	0xbd8c3dd3	-0.068477295
170	0x3c80913f	0.015694259
171	0x3ed65d6f	0.4186816
172	0xbf549fed	-0.8305653
173	0x3eb9b53f	0.36271092
174	0xbe0b2931	-0.13589932
175	0xbf66b362	-0.90117466
176	0xbf175a91	-0.5912257
177	0x3e885a93	0.26631603
178	0x3f111585	0.5667346
179	0x3e009019	0.12554969
180	0xbe6dbeda	-0.23217335
181	0xbe90f69d	-0.2831315
182	0x3fa75c0b	1.3074964
183	0xbf19c94b	-0.60072774
184	0xbf91fd3a	-1.1405404
185	0xbd9c96a2	-0.076459184
186	0x3f5764d7	0.84138244
187	0xbd96a771	-0.07356156
188	0x3f7d084a	0.98840773
189	0x3fb3b2c8	1.4038935
190	0xbef9eddc	-0.48814285
191	0x3dd8ab9c	0.10579607
192	0xbecc2953	-0.39875278
193	0xbe9bbc31	-0.30417016
194	0x3c88539e	0.016641434
195	0xbefc6929	-0.4929898
196	0xbeb0b8cc	-0.3451599
197	0x3f3851ef	0.7200002
198	0xbf18053f	-0.59383005
199	0xbf2edacb	-0.683026
200	0xbda58725	-0.080824174
201	0xbdf38a7b	-0.118916474
202	0xbf1b668c	-0.6070335
203	0x3e289314	0.16462356
204	0xbe54bc40	-0.20774937
205	0x3eed0999	0.46296385
206	0x3dc25055	0.09487978
207	0xbef2139b	-0.47280583
208	0xbf446f8d	-0.76732713
209	0x3f4285e4	0.7598555
210	0xbe6e59c3	-0.23276429
211	0xbd6f1755	-0.05837186
212	0x3f146fee	0.5798329
213	0xbd1dfdbd	-0.03857206
214	0xbf1a5057	-0.6027884
215	0x3f00eff1	0.5036612
216	0x3f94c34e	1.1622102
217	0xbdef0983	-0.11671736
218	0x3cb2184a	0.021740098
219	0xbe06ce33	-0.13164596
220	0xbee43f1c	-0.445794
221	0xbf104f5f	-0.5637111
222	0x3f546ccc	0.8297851
223	0xbec1e961	-0.37873366
224	0x3f35ed48	0.7106519
225	0xbe27a6e8	-0.16372263
226	0x3eac3ed2	0.33641678
227	0xbedbb34c	-0.4291023
228	0xbde675e2	-0.11252953
229	0xbe1bef19	-0.15227927
230	0xbf2ccf78	-0.6750407
231	0xbeb59dfb	-0.35472092
232	0xbdf7dd92	-0.12102808
233	0xbebb30e9	-0.36560753
234	0x3d94a1f1	0.0725745
235	0x3cd1e349	0.025621073
236	0x3fc217cb	1.5163511
237	0x3f87dfa3	1.0615124
238	0xbe2a9fb0	-0.16662478
239	0x3dc29fd8	0.09503144
240	0x3c7cca8c	0.01542915
241	0xbde00fc9	-0.10940511
242	0xbf005a7d	-0.50138074
243	0x3ef303dd	0.47463885
244	0x3e5204b4	0.20509607
245	0xbe526a22	-0.20548299
246	0xbf08f8d6	-0.53504694
247	0xbf05faaa	-0.5233561
248	0x3f0ae97c	0.5426252
249	0x3e0418af	0.12900041
250	0x3f7813f7	0.96905464
251	0x3b315d3e	0.0027063633
252	0xbf2d4c41	-0.6769448
253	0xbe816939	-0.2527559
254	0xbd733112	-0.05937297
255	0x3e5e0084	0.21679884

classifier.bias f4 [10]
0	0xbd0f48fe	-0.03498172
1	0xbd14056d	-0.036137987
2	0x3d973dda	0.07384844
3	0xbdc3a359	-0.095526405
4	0x3c51e313	0.012810486
5	0x3d2e1c4b	0.04250745
6	0xbe0329a1	-0.12808849
7	0x3d39b95c	0.045342788
8	0x3def3d1f	0.1168158
9	0x3b5523c9	0.003252255
